parameters.pt (torch, 351541 bytes, 48 tensors)

l1.threshold f4 [32]
00000000: a784 753e d169 283f edb4 5a3d b965 bf3e
00000010: 16e2 dd3e 1c07 283e 71fb de3e a698 6c3e
00000020: c271 9b3d 16b0 2d3f a2dc 133e 2303 263e
00000030: 61f5 533e 0ff1 cc3e f4bc fc3e d3a6 253e
00000040: ff91 413f 40a0 663f 19ae 343f 9881 443e
00000050: d337 b33e 40df b83e 5e3d 3e3f 6d0c 2a3f
00000060: 1b11 333f a450 383f dd23 783e dfe0 413f
00000070: aaee ab3d 5f76 2a3e ee0d 4b3f 94b7 f73e
0.23976384 0.65786463 0.0533952 0.37382296 0.43336552 0.16408962 0.4355121 0.23105106
0.07590057 0.6784681 0.14439633 0.16212134 0.20699073 0.40027663 0.4936291 0.1617692
0.756134 0.9008827 0.7057815 0.19190061 0.35003528 0.36107826 0.7431239 0.6642521
0.69947976 0.7199805 0.24232431 0.7573375 0.08395131 0.16646717 0.7931813 0.48382246

l1.decay f4 [32]
00000000: c5ca f63e 0a31 333f 1a20 8e3e b1c7 153f
00000010: 68d6 bf3e 2dfc 063f 2a60 103f 00e8 2e3f
00000020: 20f7 4d3f 260d 083f ceba 3f3f 99c7 1c3f
00000030: 7f42 f23e 2d4a 083f 0fe4 3d3f 4393 c13e
00000040: 7d04 133f 795d 373f 99f4 003f f820 1d3f
00000050: 4f99 0b3f f774 f33e b9a5 243f 1f07 0b3f
00000060: ea50 453f 98ea 1f3f 3ecb 053f 88c5 2f3f
00000070: d64c 123f 6e5e 363f 1cdb 5b3f a6e0 533f
0.48201576 0.699967 0.27758867 0.5850783 0.37468266 0.5272854 0.56396735 0.68322754
0.8045521 0.5314506 0.74894416 0.6124206 0.47316357 0.53238183 0.74176115 0.37807664
0.57428724 0.71627 0.50373226 0.6137843 0.54530805 0.47550175 0.6431537 0.5430774
0.7707659 0.62467337 0.5226325 0.68660784 0.5714849 0.7123784 0.8588121 0.8276466

l1.fc.weight f4 [32, 784]
00000000: 5892 833b f2bb ba3c ac40 c5bc e002 1bbb
00000010: 16db f93c 2642 fd3c 5087 2cbb 7847 ae3c
00000020: f4c4 8c3c f043 abbb beba ecbc c859 873c
00000030: 6383 413c 6c59 563d 5b54 6a3c 07f3 73bb
00000040: e8d9 9a3c 40b0 debb a85c 5e3c a499 cfbb
00000050: 298b 033d 2e1b eb3c 48e9 95bb 88ff 863c
00000060: 7883 edbb e02c 4ebc 885a dc3b 1e70 ee3c
00000070: 8134 e6bc b303 08bd 80d1 f739 dca4 623c
00000080: b689 e23c d083 f2bb 5582 4c3c 6f0a 6e3d
00000090: f860 853b d15e 3f3c 47b0 0d3c cf6d c63c
000000a0: be3e 713d 3f7a a93c 0396 003d cff7 a03d
000000b0: 67e9 d5bd fd31 8dbc 4a78 e33d ff1d 803d
000000c0: 76f0 113e afdb ea3d b513 de3d 086d 573b
000000d0: 5e44 03bd 2813 813b e0e2 1bbc 1cfe 413c
000000e0: bcb9 98bc 0ae7 66bc 1723 4fbc b2c3 0c3c
000000f0: bc9c 093e d5dd 643d 3c8b b9bc 30e4 213d
00000100: ea10 fcbc c815 473d 88ce 07bd 037c 91bd
00000110: 5caa 96bd 9274 79bd 3bd0 96bd da03 acbd
00000120: c454 10bd 3ce3 b8bc 8336 a63d 01c7 cc3d
00000130: c744 de3d 47d2 153e 785b 8d3e c2eb ca3c
00000140: 39b1 5dbc 7edc 16bd 62de e73c 8785 90bc
00000150: 970e 0cbd e88d 213c fcc8 acbd 8b8f 4f3d
00000160: 2c29 f33d e079 b63d cac4 37bc 8517 7bbd
00000170: d841 46bd 5989 4ebd 6837 cebc e75f 91bd
00000180: d2c2 38bd dfe5 acbd 840d afbd ecb8 54bd
00000190: c87b 3cbd 1c82 83bc 8df7 a43d e9f2 4e3d
000001a0: 4252 3c3d b604 2b3d ec66 643d 42f4 7e3c
000001b0: 1fd7 2fbd d828 b0bc 7b9d 953d 307b 903b
000001c0: 8006 df3b 047a a13c f39b 80bd 2744 f7bc
000001d0: 9dad 273e dc36 8f3d 3fd0 80bc 7d94 09bd
000001e0: b0dd d0bd 6743 81bd a11c 51bd 454a efbd
000001f0: 57bd 40bd 2e43 3fbd 7153 b5bc 2b1b fabc
00000200: f743 b5bc 1f2d 39bd f503 b6bc 9f36 953c
00000210: 4fd7 7d3c 832a bfbc 9f66 0cbd 301f 213d
00000220: 486f 273d 8c7c 613d 3159 e73c c7e1 ed3d
00000230: cb21 11bd 50fa b93b 19f8 cfbc ac86 b93c
00000240: e830 dc3d eec1 af3d 4186 98bc bc59 34bd
00000250: 35f3 a8bd d3d9 39bd 29ad 3fbd 0d45 a1bc
00000260: 5720 41bc f3fb 9dbc 4367 93ba 1a2f a9bc
00000270: a976 93bc 608c 903c fd71 be3c 0e4d 48bc
00000280: 10dd 933c 8764 91bc 2fce 20bc 71ab 9e3b
00000290: 7838 39bc 0e5d 973b 8cc5 043e ab70 b33c
000002a0: 21d4 fcbc fecf 5f3a 016f 8abc f29a bfbc
000002b0: a076 123d dfdf 5c3d 60e8 6ebd 2661 5abd
000002c0: 3d73 88bd 6e5f 45bd 261c 36bd a225 1fbd
000002d0: 5aa2 49bc a1c1 22bd 46d1 f0bc 18b4 7f3b
000002e0: 1f15 34bd 9fd8 94bb 48ab 4abc d6b3 103d
000002f0: 0b84 8c3c f416 253b bb53 2d3c ac70 003d
00000300: 8273 c53b 68b0 ec3c 60ff 923d 8f62 923d
00000310: c365 debb a365 acbc 73e9 f63b c3d4 51bd
00000320: f3b1 e33d 0895 823c 55fd 5dbd a1b4 23ba
00000330: 1b35 67bd 9baf 2dbd 96ea 61bd 8aff 55bc
00000340: 88d3 0aba 197a b6bb 0dfc 3bbc 22a0 33bc
00000350: ad7c 03bc ee20 123d 2b8e b53a e120 8b3c
00000360: b2b5 1c3d 2195 a8bc 4c91 043d 6ce2 eb3b
00000370: a9b6 dcbc d9e1 1c3c fcb9 49bb 80a6 653d
00000380: e418 b63c 2b58 86bd 4dcc 38bd 0411 34bd
00000390: a59e b63d 3f0e 203c f0df 82bd 5cb9 8bbd
000003a0: c44e cabd 850b 9ebd 328c 8ebc 8bdb 28bd
000003b0: 43b6 ccbc e331 6abc d9ff 9abb c589 9d3c
000003c0: d1d1 013c 3d66 8ebc 39ff 783c f305 283d
000003d0: 8fbd f73b a812 9e3c f745 a63b 596a c73c
000003e0: 904f e93c fa79 b73c 7681 b23c d3af ac3d
000003f0: 3e21 653a f5c8 0fbb 3094 3dbd 7532 a9bc
0.0040152483 0.022794697 -0.02407869 -0.0023652837 0.030499976 0.030915331 -0.002632577 0.021274313
0.017183758 -0.0052266046 -0.02889764 0.016522303 0.01181111 0.052331373 0.0143023385 -0.0037223713
0.018902734 -0.006795913 0.013571896 -0.006335454 0.032115135 0.028699484 -0.0045749284 0.016479269
-0.0072483383 -0.012583941 0.0067246594 0.029106196 -0.028101208 -0.033206653 0.000472676 0.013833251
0.027653556 -0.007400967 0.012482245 0.05811542 0.0040703975 0.011680321 0.008647985 0.024222283
0.058897726 0.020688174 0.031393062 0.07859766 -0.104449086 -0.01723575 0.11106928 0.06255721
0.14251885 0.114676826 0.108436026 0.0032871384 -0.032047622 0.003939051 -0.00951454 0.01184037
-0.018643253 -0.01409317 -0.012642643 0.008591579 0.13438696 0.055875618 -0.0226494 0.039524257
-0.030769784 0.048604757 -0.033155948 -0.071037315 -0.07356712 -0.060902186 -0.073639356 -0.08399172
-0.03523709 -0.022569291 0.08115866 0.099988945 0.10852962 0.14630996 0.27608848 0.024770621
-0.013531023 -0.03683137 0.028304283 -0.017641796 -0.0341936 0.009860493 -0.08436772 0.050674003
0.11873087 0.089099646 -0.011216352 -0.061301727 -0.048402637 -0.050423954 -0.025172904 -0.0709837
-0.04510767 -0.08442282 -0.085475 -0.051934168 -0.046016484 -0.016053252 0.08055029 0.050524626
0.045976885 0.04175254 0.055762216 0.015561165 -0.042929765 -0.02150385 0.07305428 0.0044092163
0.006806195 0.019711502 -0.06279745 -0.030183865 0.16374822 0.069928855 -0.0157243 -0.033588875
-0.101985335 -0.06311684 -0.051052693 -0.11684088 -0.04705557 -0.046694927 -0.022134515 -0.030530533
-0.022127135 -0.045209046 -0.022218684 0.018214522 0.015493228 -0.0233357 -0.034277555 0.039336383
0.04087761 0.055050418 0.028240772 0.11615329 -0.035432618 0.0056755915 -0.025386857 0.022647224
0.107515156 0.08581911 -0.018618705 -0.04403089 -0.08249513 -0.04537375 -0.046795998 -0.019686246
-0.011787496 -0.019285178 -0.0011245984 -0.020652343 -0.018000918 0.017645061 0.023247713 -0.0122254025
0.018049747 -0.01774813 -0.009814783 0.0048422148 -0.011304967 0.0046192473 0.12965983 0.02190431
-0.03086287 0.0008537768 -0.016898634 -0.023389313 0.03575766 0.053924438 -0.05832708 -0.053315304
-0.06662605 -0.048186712 -0.04446044 -0.03885425 -0.012306774 -0.03973544 -0.029396664 0.0039017256
-0.043965455 -0.004542425 -0.012369938 0.035327755 0.017152807 0.0025190683 0.010579045 0.031357452
0.0060257325 0.02889271 0.07177615 0.07147705 -0.0067870333 -0.021044558 0.0075351535 -0.051228296
0.111179255 0.015940204 -0.054196674 -0.00062448723 -0.05644713 -0.0424038 -0.05515536 -0.013061414
-0.0005295803 -0.0055687544 -0.011473668 -0.010963472 -0.0080253305 0.035675935 0.0013851573 0.016983451
0.038259216 -0.020578923 0.03236513 0.0071986225 -0.026942568 0.009575331 -0.0030781021 0.05606699
0.022228666 -0.065597855 -0.04511671 -0.04396154 0.08916978 0.0097690215 -0.06390369 -0.06822464
-0.098783046 -0.07717041 -0.017400835 -0.041224997 -0.024989253 -0.0142941205 -0.0047302064 0.019230733
0.007923559 -0.017382735 0.015197569 0.0410213 0.007560439 0.019296005 0.0050742584 0.024342703
0.028480321 0.02239703 0.021790247 0.08431973 0.000874061 -0.0021939848 -0.0462839 -0.020653943

l1.fc.bias f4 [32]
00000000: c1e6 08bd 440c 3ebd 7649 0c3c a843 cbbc
00000010: aa9b e03b 38ae 113d a4e7 efbc a396 6cbc
00000020: 6858 a1bb af82 123d a39a 563d c6a4 903b
00000030: acf9 84bd 3e82 643c f151 113d 586d 20bd
00000040: 5060 593d 64bf 933c 7919 1a3d 13c6 c73a
00000050: 3a8a 03bd a786 ab3a 4848 8ebc 62c4 08bc
00000060: dcf8 093d f28d c13c 5dd3 4d3d 7f29 023d
00000070: 70b4 1b3d 5ab4 273d 7ec9 a43c 3d26 713c
-0.03342319 -0.046398416 0.008562436 -0.024812534 0.006854494 0.03556654 -0.02928526 -0.0144402115
-0.004923869 0.03576916 0.052393567 0.004414174 -0.06492934 0.013947068 0.035478536 -0.03916678
0.053070366 0.018035598 0.03762195 0.0015241526 -0.032114245 0.0013086394 -0.01736845 -0.008347603
0.033684596 0.023627255 0.0502504 0.031777855 0.038013875 0.04094348 0.02011561 0.014718589

l2.threshold f4 [32]
00000000: 72eb 233f 15ea 783f 84b2 533f aa5f 033f
00000010: 052b bf3e 3697 263f e71d 293f 1b76 9f3e
00000020: a21b c63e 5fcf 713c 0821 2b3f ace1 ae3e
00000030: 9b9c 6e3f d1d8 023f ac8f 073f f23c d93d
00000040: 5286 7d3e 5e56 4f3f bdbb 1a3e 4ea4 2f3f
00000050: 4094 713f 7d83 bc3e 5095 203f 66e8 833e
00000060: 2bc1 043e e241 813f 7269 343f c194 213e
00000070: 483a 103f 421f 1d3f fbb9 343f 0846 163d
0.64031136 0.9723218 0.8269427 0.51317847 0.3733751 0.6507448 0.6606125 0.31144795
0.38692957 0.014758914 0.66847277 0.3415655 0.9320771 0.51112086 0.529536 0.106073275
0.2475827 0.8099116 0.15110679 0.68610084 0.94366837 0.36819068 0.6272783 0.25763243
0.12964313 1.0098231 0.70473397 0.15779401 0.5633893 0.6137582 0.70596284 0.03668788

l2.decay f4 [32]
00000000: faf5 3d3f 0d3e ef3e 5a9b 283f 605a 5a3f
00000010: d0c4 3f3f 47d4 3e3f 8ddd 023f 3857 3e3f
00000020: 024d 113f d1c0 f83e a616 063f 37a7 d53e
00000030: 5150 c53e 716f 393f fd86 f53e b34d 473f
00000040: 26da 433f 2652 463f f9ea 333f 1105 263f
00000050: db0c 683f cd58 033f 1a51 273f 855a fb3e
00000060: fbbb 303f 71f8 603f 6c4a 583f 8ec4 343f
00000070: f98a 373f 45a0 063f b21b 2e3f 6683 2e3f
0.74203455 0.46727028 0.6586205 0.8529415 0.7490969 0.7454266 0.5111931 0.74351835
0.5675813 0.48584607 0.5237831 0.41729137 0.3853784 0.7243567 0.4795455 0.77852935
0.76504743 0.774691 0.70280415 0.6485148 0.90644616 0.51307374 0.65358126 0.49092498
0.69036835 0.8787909 0.8448856 0.7061242 0.7169643 0.525883 0.6801101 0.6816925

l2.fc.weight f4 [32, 32]
00000000: d582 933d 792d f8bd bcf3 5e3d ab67 b03d
00000010: 8e75 b2bd ca9a 0fbd f954 56bd d07c d8bd
00000020: 6533 86bc 36b1 083d e44a f33d f6cd e7bd
00000030: c577 19be 8c0b f5bc 4453 57be c72e 0e3e
00000040: 89bd ca3d 0242 fd3d aec2 703c 3960 293e
00000050: e852 533c d370 13bd 9aee dabb 8a92 dabc
00000060: 911c 44bd ee3d b7bd 3cd6 febd 652e e43d
00000070: d5aa b6bc 9a68 863b dce3 1f3e eaee b3bd
00000080: 59e9 28be 125a d5bc ecca 413e 99de a7bd
00000090: 016d bcbd 17d5 073e fa3d 6d3e b197 1b3e
000000a0: 080d 6ebd 6c00 9c3d 6c2f fe3c 5eed 1ebe
000000b0: b3ef e7bd 71af 6bbe eba9 0e3e d353 eb3d
000000c0: acb9 aebd a989 aa3c 4d5f d23c 41d5 363e
000000d0: 504e 413a dd81 fc3d 4da8 d03c 943f 18be
000000e0: 66b7 733d d38c babd c07c 243d 447f d1bd
000000f0: cc89 8b3b f416 aabd 0da8 f13c 33d9 09be
00000100: f92f 6bbd 8099 fcbd 88df 413b 5395 cfbd
00000110: 2a2d 68bd 24cd da3d 4c49 c83d 779e d53d
00000120: e1fb a9bd 1c4a eebd def0 74bd 8b9d 7f3d
00000130: 363a fa3d f83e 063e 0dba 01be 7bb8 87bd
00000140: ee88 9cbe 8ad8 db3d af34 08be ef1a cf3d
00000150: 705a 263e b6da bf3d ff9d 81bc c7dd 35be
00000160: b2d0 8b3d 4f76 b2bd e2e8 47be e11a 07be
00000170: 4054 eb3d aa74 083e 8695 d9bd ce97 003e
00000180: 0803 3e3e ddac bdbd a626 efbb 6307 e1bd
00000190: cedd df3d de80 93bd 85ff b8bd 48d2 013d
000001a0: db0b b139 b57d 13bd 293c b1bd 2516 913d
000001b0: c664 a93d 4804 573e e82e 47bd 3663 dc3d
000001c0: d478 373e 0d53 4abd cc49 f73d 6619 99ba
000001d0: 6883 073e 5d86 a6bd 9405 38ba fbab 503d
000001e0: 274e f73d eab8 1c3d 943c 043e 71c5 8a3d
000001f0: 7e83 ee3d 58eb 77bd 5ced 1dbe 9815 9abd
00000200: 5c05 11be 0879 3f3d bd2f 34be e263 ebbc
00000210: 17b3 a4bd 3658 4bbc 7830 4e3d 8a28 493d
00000220: c606 bb3d d41e 85bd f718 183d 4150 dfbd
00000230: b5fc 1e3c c03a 07be 9b1b 9c3d ea2b 7dbd
00000240: a24f 08be 89ee e9bd fa55 363d 7625 40bb
00000250: f9a2 113e 73b4 3dbe 61fc 48bc 252a b13b
00000260: bb90 9dbc 2d2f 8d3d 32d3 b8bd 18be 3c3c
00000270: ada8 bcbd 6468 303e ecde 32be b531 4fbe
00000280: 3034 9dbc 0cdb abbd bf4f bd3c b6ca 2cbd
00000290: 9a9c a3bd df01 223e e491 3fbd 765b d4bd
000002a0: 27c8 dfbd d7a7 553e f1ea f43c 7085 b3bc
000002b0: 05fa 1abd cdf4 8b3e c90e ddbd b1b4 2bbd
000002c0: 782c 19be 00a1 d33d a851 a13c 4baa 6d3d
000002d0: 680e b8bd 1ce3 053e 8bb5 d83d d014 b83d
000002e0: de46 7fbd bd84 003e 6052 29be 2413 d13d
000002f0: 15ce 293e 78f0 b33c 7c36 3fbe 9c1f 013e
00000300: 61fc c83d cd35 4d3d 14eb 093e 37f9 2c3d
00000310: 690e 1f3e de82 c2bc f2b8 cf3c 6ace b43d
00000320: 41b0 b53d f99b 613e 6ee2 8c3d f3e3 363d
00000330: 83fd 73bd b0ae d4bb b1ef 1bbe 4f98 033e
00000340: ca34 09be ec23 7ebe c104 34be d6fd c3bc
00000350: d339 e23d 0e68 1fbd c236 2cbd 24f3 1d3e
00000360: 68b2 3c3e 501c 6b3c e535 a23d 8bd4 ce3d
00000370: 0a17 0d3e af53 96bc 1470 88bd e1e7 3c3c
00000380: 9bf6 c63d f92c 07bd 05d9 3abd 6985 bdbd
00000390: c85e 313e 55a6 04be 432a 353d b62d a5ba
000003a0: bccb ed3d eb5d 033e f070 30be ebdc 903d
000003b0: 84a4 9ebd ad2b 19be 018f c63d 3ba7 043e
000003c0: f470 2fbe f466 8dbd ad33 0cbc 2237 3e3e
000003d0: 1d7c d0bd c751 bbba 34d5 66bd 7edc 19be
000003e0: 7f6a 98bd 020b 92bd 6df1 293e 0fbc cfbb
000003f0: a016 bebd c6e7 d2bd bd9c 5dbe 2743 e6bc
0.072026886 -0.12118048 0.054431662 0.08613523 -0.08713828 -0.035059728 -0.05232713 -0.10570681
-0.016381929 0.033372127 0.11879519 -0.11318581 -0.14987095 -0.029912733 -0.21027857 0.13885032
0.09899432 0.123661056 0.014694853 0.16540612 0.012898184 -0.03599627 -0.0066812756 -0.026681203
-0.047878806 -0.08947359 -0.12443206 0.111416616 -0.022298256 0.004101825 0.15614265 -0.087858036
-0.16495265 -0.026043925 0.18925065 -0.08196754 -0.09200478 0.13264881 0.23168173 0.15194584
-0.058117896 0.07617268 0.031028472 -0.15520236 -0.11325016 -0.23016144 0.13932006 0.114905976
-0.08531508 0.020817595 0.025680209 0.17854787 0.0007374035 0.12329457 0.025470877 -0.14868003
0.059501074 -0.09108891 0.040158033 -0.10229352 0.00425837 -0.08305159 0.029499078 -0.13461761
-0.057418797 -0.12333965 0.0029582698 -0.10135903 -0.056683697 0.10683659 0.09779605 0.104306154
-0.08299995 -0.11635229 -0.05980002 0.062406104 0.12218134 0.13109958 -0.12668629 -0.06626984
-0.3057322 0.10734661 -0.13301347 0.10112559 0.16245437 0.09367888 -0.015822409 -0.17760383
0.06826915 -0.08713972 -0.19522431 -0.13193847 0.11490679 0.13325754 -0.106242225 0.12557909
0.18555844 -0.09261487 -0.0072983084 -0.10987737 0.10930978 -0.07202314 -0.090331115 0.03169468
0.00033768904 -0.036008555 -0.08654053 0.07084302 0.08271174 0.20997727 -0.048628718 0.107611105
0.17917186 -0.04939561 0.120746225 -0.0011680543 0.13233721 -0.081310965 -0.0007019874 0.050945263
0.12075453 0.038262285 0.12913734 0.0677594 0.11646174 -0.060527176 -0.15422577 -0.0752365
-0.141622 0.046746284 -0.17596336 -0.028734151 -0.08041971 -0.012411168 0.050339192 0.049110927
0.09132151 -0.065000206 0.037133183 -0.10903979 0.009703805 -0.13206005 0.07622453 -0.061809458
-0.13311628 -0.1142245 0.044515587 -0.0029319203 0.14222325 -0.18525867 -0.012267203 0.0054066353
-0.019234052 0.06893764 -0.09024657 0.011519931 -0.0921186 0.17227322 -0.1746785 -0.20233805
-0.019189924 -0.08391389 0.023109315 -0.042185508 -0.07988854 0.15821026 -0.04676999 -0.10369007
-0.10926848 0.20864807 0.029897185 -0.021914214 -0.037836093 0.27335206 -0.10793836 -0.041920368
-0.1495837 0.10333443 0.019692257 0.058023732 -0.08987123 0.13074917 0.105815016 0.08988345
-0.062323444 0.12550636 -0.1653533 0.10208729 0.1658252 0.02196525 -0.18673128 0.12609714
0.098137625 0.050100137 0.13468581 0.042229857 0.15532841 -0.023744043 0.025356743 0.08828433
0.088715084 0.22032155 0.068791255 0.044650983 -0.05956794 -0.006490551 -0.15228154 0.1285107
-0.13399044 -0.2481839 -0.17579938 -0.02392475 0.11046185 -0.038917594 -0.04204441 0.15424782
0.18427432 0.014350012 0.07920436 0.10099133 0.1377832 -0.01835045 -0.06662002 0.011529894
0.09715005 -0.033001874 -0.045617122 -0.092539616 0.17321312 -0.12954076 0.044229757 -0.0012602124
0.11611125 0.12828796 -0.17230582 0.07073387 -0.077462226 -0.14958067 0.096952446 0.12954418
-0.17132932 -0.069044024 -0.008557242 0.18575719 -0.10179923 -0.0014291339 -0.05635567 -0.15025517
-0.074421875 -0.07131006 0.16596003 -0.006339557 -0.09281659 -0.102981135 -0.21641822 -0.028108193

l2.fc.bias f4 [32]
00000000: c047 af3d 3b8b 153e a161 e83d 48e8 93bd
00000010: 2cdc c03d e687 533d ae15 f2bd 7576 ee3c
00000020: 15ac dd3d cc8a 5bbd 513a ffbd 0e1b d0bd
00000030: 41c9 61bd d707 0f3e 740e 2dbe 94e3 313e
00000040: 73b1 15be 48f9 3d3d 9a64 873d 86fe bf3d
00000050: 0c71 ad3d 1f34 d4bd 2e37 13be 6c94 0bbe
00000060: 5c0d f9bd 144f ef3d 191a 053e 9e58 c63d
00000070: 0dfd 8d3d 5f01 27be e3cc 803c 853e 8e3d
0.08558607 0.14603893 0.11346746 -0.072220385 0.094169945 0.051643275 -0.11820541 0.02910922
0.10823838 -0.053599164 -0.12462295 -0.1016141 -0.05512357 0.13967834 -0.16900045 0.1737197
-0.14618473 0.04638031 0.06610985 0.09374718 0.084688276 -0.10361504 -0.14376518 -0.13630837
-0.12160751 0.11685005 0.12998237 0.09684871 0.06933031 -0.16309117 0.015722698 0.069455184

l3.threshold f4 [32]
00000000: cc2d 3a3f 2ab5 0e3e 307b 0c3e 8354 613f
00000010: 264e d53e 1c70 093f f384 593f 09fd 5e3f
00000020: e25e 4e3e f32e 1e3e 4cdf 1d3e 17c2 193f
00000030: b9db e83e a451 6b3f bad8 7f3e 2049 663f
00000040: c80c 573f e648 313f 6a65 0f3e bde1 f83e
00000050: c082 fd3d 6a08 6a3d 8b3d dd3d d155 433f
00000060: 200b 213f 0655 243e 7f67 883e 95fc 033f
00000070: 4ed1 7f3e 3638 733f 7d68 ea3e 91a7 433f
0.7272613 0.13936296 0.13718867 0.8801958 0.41661185 0.5368669 0.8496849 0.8710485
0.20153382 0.15447597 0.15417212 0.6006178 0.45480135 0.9192145 0.24985018 0.8995533
0.8400388 0.6925186 0.1400353 0.48609725 0.12378454 0.05713693 0.10802754 0.7630282
0.629076 0.16048059 0.2664146 0.51557285 0.24982187 0.95007646 0.45782843 0.7642756

l3.decay f4 [32]
00000000: b8f2 503f 95cd 483f d271 003f 0375 0b3f
00000010: 2dad 143f 1c21 023f 7a93 4d3f 251f f93e
00000020: 5e7e 493f dba3 403f 9c2d 153f 9dfe 363f
00000030: 8def ce3e 8695 f43e abb7 f73e 851e 373f
00000040: 28c3 ef3e 491a 283f 623e e43e b2a5 453f
00000050: 3998 083f 0b6d 3c3f 7089 673f 297c 0f3f
00000060: 6344 223f 7a49 e73e b44d 203f 18aa 493f
00000070: 8870 e33e bee8 e83e fe34 4b3f 3fd1 583f
0.8162036 0.78438693 0.50173676 0.5447542 0.58076745 0.5083177 0.80303156 0.48656574
0.78708446 0.75250024 0.5827272 0.7148226 0.40417138 0.47770327 0.48382315 0.71530944
0.4682858 0.6566511 0.44578844 0.77205956 0.53357273 0.73603886 0.9044409 0.5604883
0.633856 0.45173246 0.62618566 0.7877517 0.44421792 0.45490068 0.79377735 0.84694284

l3.fc.weight f4 [32, 32]
00000000: 9a9e 0dbe 2992 af3d f73e e93d 45c2 01be
00000010: 41c5 4cbd 88a3 21be 200a a03d 5cc4 34be
00000020: 107d 6abd 4841 4dbd df9c 9cbd 341c 1fbe
00000030: b034 6bbd a632 efbd ea21 e9bd ed1c e4bd
00000040: 63b6 20be c7ed 35be ddd2 c9bc 496c e3bd
00000050: 007e 4abc 8d29 0cbe 83d9 5bbd f790 563d
00000060: 0698 603d dc27 01be ddb5 0e3e a9b9 56bd
00000070: 727d b1bd 38e1 2bbd f6b4 32be b2e7 26be
00000080: 7497 f2bd 0f5f 78bd ae2a f3bd e7b8 c3bd
00000090: 92f1 c7bd 7edd 18be 4261 b23d 7ca3 a9bd
000000a0: 4e62 863c d259 03be 6609 c93c 3173 21bd
000000b0: 8a03 333e 33a8 98bd 3f2b c53d 1314 8ebd
000000c0: 0ed6 92bd 138d 843d f448 c0bd c842 643d
000000d0: 9b64 2dbd 1aa5 213e 25b7 39bd a643 2fbe
000000e0: 3e00 89bd 9f92 ef3c 71ee 073e 01eb 283e
000000f0: 19cb 47bc 0035 4a3e d933 6fbd 442c d03d
00000100: abd5 153e cb40 d8bb 2e13 5cbd 0f4a 40be
00000110: 4732 d9bb ac0c ac3d 1036 033e fcb8 e33d
00000120: 4697 013e fa7d f93d 1cb3 77be a97b 5b3d
00000130: bf47 f1bb 8524 c2bd 2e12 093d 7a5f df3a
00000140: 0de0 463d 0747 85bd 8289 4abc 262c 0e3d
00000150: 51ce 6d3b 65b1 2bbd b0f7 75bd 5d87 983d
00000160: d44a d13d 35b3 b33d 9f24 0cbe aacf 413d
00000170: 9e84 0d3e 924f 143e 89a3 1b3e 0512 3ebc
00000180: e2e7 8b3c 659a f73d fae2 763e d53d f3bd
00000190: 8019 04be 0f15 343e 4e7c 0bbe 79da 03be
000001a0: e11d 243e 600c b2bd cc51 103c aa66 cfbd
000001b0: 4075 bebd 525b 0b3e 4dad a03d c5c8 f53d
000001c0: c513 0bbd be00 41be b7f3 87bd f630 13bd
000001d0: ec59 2fbe cfb7 50bb 391a 0f3e 6904 f03a
000001e0: b8bb 5abd 69a3 65bd 42bc 213e faca 91bc
000001f0: 4007 3a3d 71f4 cdbb b36f bfbd d1a6 62bd
00000200: 52ea 1fbc 7936 f5bd 4ec0 083e 8fce 373e
00000210: 5ea1 573d 7246 c3bb 8c2c 99bb 8f88 103e
00000220: 3577 4f3d c4cc 52bd 184f 1d3d 7581 383d
00000230: 3f7e f4bc d2a1 9a3d fb91 093e 5978 62bb
00000240: e548 b8bd 15b5 843d 98b8 21be bfdf 483e
00000250: d7fa 84bd 28b2 4fbc df41 35be 9223 203d
00000260: 7aaf 6cba a1c5 283e 6525 5fbe 1d0a 2ebe
00000270: 9356 183d 7ec8 50bc 0c04 8cbd 7581 b4bd
00000280: db9b 9ebd fd07 353d 9bce 83bc 590f 423d
00000290: fc29 a4bd cacd 2cbe cff7 e4bd 7685 f4bd
000002a0: 289f 75bd 53a9 f53d 8980 d3bd d78d 7fbd
000002b0: e943 433d 2d99 0a3e 1844 90bd b610 283e
000002c0: ca4c edba ec61 273e 16ce d2bd addc 82bc
000002d0: b45c 043d 234a 72bd c3cf dabd 72e1 1d3e
000002e0: b17f c8bc b46b ee3c b2c8 173e 45ad d5bd
000002f0: 5e78 e1bd c1e2 8d3d 97bf 6fbc 7005 36bd
00000300: 35c4 56bd 8b6d 1c3e 530f 843e 6d70 2abe
00000310: 9641 0bbe ec2f 7ebd 5b87 17bd 88c4 d93d
00000320: 49c9 b0bc fd85 803d 4646 2e3e fc75 3b3e
00000330: 4927 3f3e a5d1 113e 35ef 25bd 69aa 433e
00000340: 16d4 7b3d 49d2 cf3d 438a 143e 5d96 333e
00000350: cdf5 f73c 50ad d13d e076 60bd 83b0 243e
00000360: 7881 dd3c 328b dcbd 2a47 3ebd cca2 f7bd
00000370: 1030 983d 4299 8cbd 5f75 1abd 65bc b93c
00000380: 3380 7d3e 2e37 babd f5e9 363e 355a e8bd
00000390: 5bf2 ddbd 6ce8 833e e40e f83d 972f f23d
000003a0: 23bc e1bd ca6a 5d3e 8883 083e d2cc edbd
000003b0: f953 863b 3420 e6bd 82ca 113d 1419 99bd
000003c0: a9ec c3bd 7b59 56be 368d 10bd b67f 2f3e
000003d0: bce2 c33d 6bf3 bebd 1d16 4bbd e4f7 b8bd
000003e0: d0d0 193d 6917 9e3d 0d32 683d daff f83d
000003f0: cf62 a5bc 5fe1 02bc df09 abbe 5e5a bcbd
-0.13830033 0.085728 0.11388963 -0.12671764 -0.049992803 -0.15785038 0.07814431 -0.1765303
-0.057248175 -0.050111085 -0.07647108 -0.15538102 -0.057423294 -0.11679582 -0.11383422 -0.1113833
-0.15694575 -0.17766486 -0.02463668 -0.11104638 -0.012359142 -0.13687725 -0.053674232 0.052384343
0.05483248 -0.12612861 0.13936563 -0.052423153 -0.08666505 -0.041962832 -0.17451844 -0.16299322
-0.11845294 -0.06063753 -0.11873375 -0.09556752 -0.09762873 -0.14928243 0.08709957 -0.08283135
0.016404297 -0.12827232 0.024540614 -0.039416496 0.17481819 -0.074539565 0.09627389 -0.069374226
-0.07169734 0.0647222 -0.09388915 0.05572775 -0.042332273 0.15785637 -0.045340676 -0.1711565
-0.06689499 0.02924472 0.13274552 0.16495897 -0.012194418 0.1974678 -0.058399055 0.10164693
0.14632289 -0.006599521 -0.05372923 -0.18778251 -0.006628308 0.084008545 0.12813592 0.11119267
0.12655362 0.12182231 -0.24189419 0.05358473 -0.007363289 -0.09479622 0.033464603 0.0017042004
0.048553515 -0.06507688 -0.012361886 0.034710072 0.0036286304 -0.041917223 -0.060050666 0.074476935
0.102193505 0.087744154 -0.13685845 0.047317185 0.1382012 0.14483479 0.15199102 -0.011600976
0.017078344 0.12089995 0.24110022 -0.11877028 -0.12900352 0.17586158 -0.13621637 -0.1287631
0.16027023 -0.086937666 0.008808564 -0.101270035 -0.092997074 0.13609055 0.078455545 0.120011844
-0.0339544 -0.1884794 -0.06638282 -0.035935365 -0.17124146 -0.003184784 0.13974847 0.0018311861
-0.05340168 -0.056064043 0.15794471 -0.017796982 0.04541707 -0.006285243 -0.09347477 -0.05533487
-0.009760456 -0.119732805 0.13354608 0.1794989 0.052644126 -0.0059593255 -0.0046745 0.14114593
0.050650794 -0.05146481 0.038405508 0.045045335 -0.029845355 0.07550396 0.13434593 -0.0034556596
-0.089982785 0.06479851 -0.15793073 0.19616602 -0.064931564 -0.012676753 -0.17700909 0.039096422
-0.00090288336 0.1648164 -0.21791609 -0.16996045 0.03719194 -0.012743114 -0.068367094 -0.088137545
-0.07744571 0.04419707 -0.016089728 0.047377918 -0.080158204 -0.16875377 -0.11180078 -0.11939518
-0.059966236 0.11995187 -0.103272505 -0.06239113 0.047672186 0.13534994 -0.07044238 0.16412625
-0.001810455 0.16345948 -0.10293214 -0.015974367 0.03231497 -0.059152734 -0.10684159 0.15418032
-0.02447495 0.029104091 0.14822653 -0.10433439 -0.11009286 0.069280155 -0.014633081 -0.04443878
-0.05243321 0.15276162 0.2579294 -0.1664445 -0.13599238 -0.06205742 -0.03699432 0.106331885
-0.021580355 0.06275556 0.17018995 0.18306726 0.1866733 0.1424013 -0.04051133 0.19107975
0.061481558 0.101475306 0.14505868 0.17537828 0.030268574 0.10238135 -0.054800868 0.16082959
0.027039275 -0.10768737 -0.046454586 -0.12091598 0.07431042 -0.06865169 -0.03770959 0.022672841
0.24755935 -0.09092556 0.17862685 -0.113453306 -0.10837241 0.2576326 0.12112215 0.11825483
-0.11022212 0.21622768 0.13331425 -0.11611332 0.004099366 -0.11236611 0.035593517 -0.074754864
-0.09566624 -0.20932572 -0.03529092 0.17138562 0.095647305 -0.09323772 -0.049581636 -0.090316564
0.037552655 0.07719309 0.056688357 0.12158175 -0.020188717 -0.007988303 -0.3340597 -0.09196924

l3.fc.bias f4 [32]
00000000: 8221 0c3e 047f 923d aae2 ec3d 088c fc3c
00000010: 1c79 9ebd a215 2b3e ec3d e6bd e4a8 ab3c
00000020: 8b06 3fbe 2869 e03d f3d4 c83d be89 f1bd
00000030: f6dc 8dbd 9222 9c3c e6dc e4bc ee24 0dbe
00000040: f706 1dbe fe6d 21be d8c5 2fbe 60c7 d43d
00000050: 7cbd a03d 873b 8c3d cfe7 3dbe e6b6 16be
00000060: 50e2 1b3e bdc9 b13c 882f 35bd e008 17be
00000070: 617b 29be 5672 05bc 57fd 1bbe 6002 373e
0.13684657 0.071531326 0.1156667 0.03082849 -0.077379435 0.16707471 -0.112422794 0.020954557
-0.1865484 0.10957557 0.09806242 -0.1179385 -0.069269106 0.019059453 -0.027937364 -0.13783619
-0.15334688 -0.15764615 -0.17165315 0.1038959 0.07848641 0.068472914 -0.18545459 -0.14718208
0.1522305 0.021702642 -0.044234782 -0.1474948 -0.16550972 -0.008144936 -0.1523336 0.17872

l4.threshold f4 [10]
00000000: dd52 fa3e 3c38 d13e 6915 593f 92f6 933e
00000010: 32e7 6e3f 0855 d93e 6e3a ba3e 4033 233f
00000020: d104 0d3f ab40 453f
0.48891345 0.40863216 0.84798294 0.28899056 0.93321526 0.42447686 0.36372703 0.63750076
0.55085474 0.770518

l4.decay f4 [10]
00000000: e23f 2f3f 996e e33e bfe9 2d3f 754a 123f
00000010: 3eb5 263f 1b10 083f b7a8 f83e c2f4 313f
00000020: 3021 be3e eb3e 003f
0.6845685 0.44420317 0.67934793 0.5714486 0.65120304 0.53149575 0.4856622 0.69514096
0.37134695 0.50096005

l4.fc.weight f4 [10, 32]
00000000: f371 ac3d 05d5 903d 9f9d 0f3d a5db 16be
00000010: fbbe 223d deab c3bd aac3 59be 2529 863d
00000020: 1b00 233e e5a2 9cbb d03d 58bd 151f 83bd
00000030: 3fc1 d7b9 6d37 2ebc 6225 ca3d 19f8 45be
00000040: 7c2d 9bbd 23ee 89bd 9be4 4dbd f410 293e
00000050: 4ab5 fdbd 1067 d43d ecc2 8dbc 0950 8dbe
00000060: bfc8 e43c 2e04 60bc 66cf a03b d2c0 033e
00000070: a0c5 893d cd00 49be af01 f13d d843 14be
00000080: 0ecf 20be 7786 74be 0ea0 48bd 7c5b 133e
00000090: ce6f 2abe 9cdd 0a3e ca01 8abd 06ec 84be
000000a0: 68a8 a73d b184 213e ddc9 cabd 9490 31be
000000b0: 6732 1cbe e0e4 17be cce2 4a3d 0f3c 91be
000000c0: fd18 243e ac7b 0c3e f0ca 2bbe 4ebb 9bb8
000000d0: 8c9b ecbd dc49 1abe 4aed 803d 48c4 5dbe
000000e0: 8b9b 713c 8e6d c9bc 782e 9f3d b874 bfbc
000000f0: 21c4 3dbc af65 e13d c18b f9bd c9e0 873e
00000100: 8ef1 5dbc f079 e53d 0d03 e53d e239 72bd
00000110: 33bb 123e 5856 fc3d ee8a 8cbb b94d 363e
00000120: d8cc bb3d 2409 683d 90e8 a6bd f1a3 c8bd
00000130: b37a b6bd cff4 2f3d e06c 4fbe 513e cabc
00000140: 009c 36bd 0724 46be 6ae4 103e f0c2 053e
00000150: f12c 25be c113 1cbd 6881 35bc 2196 1bbe
00000160: 4716 d53d bfc6 e03c 05c0 22be e266 d53d
00000170: 8b3f fd3d 7b29 5cbd c724 ee3d dd28 b63d
00000180: 9a6b 313e dfad 9bbd f5f9 10be 46e6 6d3c
00000190: f57c 8b3d 2e2f 13bd d858 0d3e 0a4c b6bc
000001a0: 525c c6bc 4ba9 ae3c 5616 1a3e 5cb1 c3bd
000001b0: f9f8 db3d f1f3 8e3d 0e1f 3ebd 0987 b03d
000001c0: cfcc 053c 942b aebd bd7c 52bd f15a a6bc
000001d0: 2155 13be 1dfe 063e 28be 203d a7e9 f23d
000001e0: 233b 163d 03d5 05be 9921 83bc 83b9 10bc
000001f0: 76ee 973c 0beb b03d 0038 62bd bdcc ed3c
00000200: 164a 0abe e88f a6bc af78 163c 5d6b d53d
00000210: a77e d73c a9ad 27be 525f 16be ddce 87be
00000220: 4b2a 55bd 0709 213e a51d 793d 8546 313d
00000230: 2a69 2d3b 4380 9d3c 45b6 76bd a0c4 8ebd
00000240: 9fc8 e23d b463 74be 90a4 42be 1daa c6bc
00000250: b610 e13c 8ba6 07bc 80ce bb3d f578 f13d
00000260: 74f5 47be bfd8 033e 5b15 7d3d 781e 80bd
00000270: a06f 6ebd 6949 27be 82a5 87bc aaf4 eabd
00000280: 4950 033e 03f4 01be 1d48 793d 0188 143e
00000290: d821 62be 430a 15be c934 33be 4d2b c4bd
000002a0: 50e5 18be a49b a5bd 5b8e 153e 509d cabd
000002b0: b2f8 9fbd 705d 8cbb a537 ed3d d568 c03d
000002c0: 6d16 053d 6d4f 9dbd ebf5 ce3d 7653 9fbc
000002d0: 4eb3 c8bd b1e2 23bd 799b 0ebe 8f95 cdbd
000002e0: 651f 8ebb 20dd bf3b 569b 82bd 777b cd3d
000002f0: f388 0fbe fb14 08be 9d7b d8bd 83eb dc3d
00000300: 2e03 68bd d2b1 833c 2265 2fbe ce34 e3bd
00000310: 54a1 61be 0072 47be 7a6e 58be 1cb6 6ebe
00000320: 3b45 88bc 6bac c0bd 266a f9bc eb26 07be
00000330: 16ae 853d 1419 de3d 93c1 49be 0458 4abe
00000340: e9da a43d 6b65 adbc d8b4 e13d e461 043d
00000350: dd2d 163e f8cf 953d 8cdb 953d b360 43be
00000360: ad47 b53c 0e17 69bd 4d7f 46be 0259 a7bd
00000370: c4ee 0b3e fcf4 59be f5c2 ed3d 5963 c93d
00000380: b9cb 423d 78f1 8cbd b510 a9bd 2863 e43d
00000390: f2a4 293e b6ad cfbd e483 0e3d ab59 4f3e
000003a0: 2d28 213e 4b5e b03d b581 ddbd 079f 073d
000003b0: 07f6 7a3d b038 4a3c 2164 373d 0264 e23c
000003c0: 97a4 d33c df38 abbd 4529 383e 61b9 2f3e
000003d0: c7c0 9d3c bef8 cfbd e934 143e 9f81 063d
000003e0: 8f07 4e3e 44ea 0fbe dce2 5b3e afbd 4cbc
000003f0: 845f a5bc 34dd 42bd 9c02 113e eb3e 573d
0.084201716 0.0707188 0.03506243 -0.14732225 0.039732914 -0.095542654 -0.21266046 0.065508164
0.15918009 -0.0047801607 -0.052793324 -0.06402413 -0.00041151975 -0.010633332 0.098704115 -0.19332923
-0.07577035 -0.06734874 -0.050266843 0.16510373 -0.12388094 0.1037122 -0.01730486 -0.27600124
0.027927754 -0.0136728715 0.0049075363 0.12866524 0.06727147 -0.19629212 0.11767899 -0.14479005
-0.15703985 -0.2387942 -0.048980765 0.14390367 -0.16644213 0.135611 -0.067386225 -0.25961322
0.08186418 0.15773274 -0.099017836 -0.17340308 -0.15253602 -0.14833403 0.049532697 -0.28366134
0.16025157 0.13719052 -0.16776633 -7.425864e-05 -0.11553106 -0.15067238 0.06295259 -0.21656907
0.014746557 -0.024588373 0.07772535 -0.023371086 -0.011582405 0.11005723 -0.12184859 0.26538685
-0.013546361 0.11204898 0.111822225 -0.059137233 0.14329223 0.12321156 -0.0042890226 0.17803086
0.0916993 0.056649342 -0.081498265 -0.09796894 -0.08910122 0.042958077 -0.20256376 -0.024687918
-0.044582367 -0.19349681 0.14149633 0.13062644 -0.16130425 -0.038104776 -0.011078216 -0.15193988
0.1040464 0.02743852 -0.15893562 0.10420014 0.123656355 -0.053750496 0.116281085 0.08894513
0.17326203 -0.07601523 -0.14157851 0.0145202335 0.06810943 -0.035933666 0.13803422 -0.022253055
-0.024213944 0.02132096 0.15047583 -0.09555313 0.10740847 0.06980122 -0.046416335 0.08619506
0.008166506 -0.085044056 -0.05138849 -0.020307036 -0.14387943 0.13182874 0.039243847 0.11860972
0.03667749 -0.13069539 -0.016007232 -0.008833292 0.018546324 0.08638581 -0.055229187 0.02902829
-0.13504824 -0.020332292 0.009184047 0.104208685 0.02630551 -0.1637484 -0.146848 -0.26525012
-0.052042287 0.157261 0.060819287 0.043280143 0.0026460388 0.019226199 -0.06023242 -0.06971097
0.11073422 -0.23866159 -0.19008088 -0.024251038 0.027473789 -0.008279453 0.09170246 0.11790649
-0.19527227 0.12875651 0.061787944 -0.062558115 -0.058211923 -0.16336598 -0.016558412 -0.11472447
0.12823595 -0.1269074 0.06085979 0.14505006 -0.22083223 -0.14554696 -0.17500605 -0.095785715
-0.14931226 -0.08086327 0.14605086 -0.09893286 -0.07811107 -0.0042835996 0.11582879 0.09394995
0.03249209 -0.07681165 0.10105499 -0.019448977 -0.09799825 -0.04001111 -0.13926496 -0.10038292
-0.0043372386 0.0058552176 -0.06377284 0.10033315 -0.14017086 -0.13289253 -0.10570452 0.10787108
-0.056643657 0.016076002 -0.17128423 -0.11094056 -0.22034198 -0.19477081 -0.21135893 -0.23311657
-0.016634574 -0.09407886 -0.030446123 -0.1319844 0.06527345 0.10844627 -0.19702749 -0.19760138
0.08049566 -0.021166524 0.11020821 0.03231992 0.14665933 0.073150575 0.07317266 -0.19079857
0.022128904 -0.056906752 -0.19384499 -0.08171274 0.136653 -0.2128486 0.11609451 0.09833402
0.047557566 -0.06881994 -0.0825514 0.11151725 0.16566828 -0.101405546 0.03479375 0.2024905
0.15737982 0.08611735 -0.10815755 0.033110645 0.061269786 0.012342617 0.044773225 0.027635578
0.025835318 -0.08360457 0.17984493 0.1716056 0.019256962 -0.10154866 0.14473309 0.03283846
0.20120071 -0.14054209 0.21473259 -0.012496396 -0.020187147 -0.047574237 0.14161152 0.052550238

l4.fc.bias f4 [10]
00000000: e05f 3d3c fda5 c9bc 48d9 f03d 026a 89bd
00000010: fa52 b53d a20b ff3d 5ebe fb3d d8ed e0bd
00000020: 33a0 f1bd 8b06 87bd
0.011558503 -0.024615282 0.11760193 -0.067096725 0.08853717 0.12453391 0.12292169 -0.10982865
-0.11798134 -0.06593045

exp_avg f4 [32]
00000000: fa61 053c cc73 b335 50a7 e93b 6d31 5eb8
00000010: 46c6 b13b 6513 213a e995 a1bb 4024 a7bb
00000020: 49ad d2b9 b0c6 1c3b 5319 3dbb 8fa7 103b
00000030: 51d6 02bb a7a6 a23b 960d e23b 287e 58bb
00000040: 55b4 1c3c 7b78 153b 6a93 3f3c 89af 2cb9
00000050: 9fa2 c03b c2e8 20bc 1f08 85ba 682d 0dbc
00000060: 3289 ae3b ce97 e73b ebc3 9abb dac4 cc38
00000070: d40c 8d3c 8916 f03b 5ce1 013b 181c 5537
0.008141035 1.3370241e-06 0.007130541 -5.2974956e-05 0.0054252474 0.00061445526 -0.0049312008 -0.005100757
-0.0004018343 0.0023922138 -0.0028854206 0.002207253 -0.0019964168 0.004963714 0.006898592 -0.003303418
0.009564479 0.0022807408 0.011692861 -0.0001646859 0.005878761 -0.009821119 -0.0010149515 -0.008616783
0.0053264135 0.007067657 -0.0047230623 9.7641445e-05 0.017218031 0.007326905 0.0019818163 1.270233e-05

exp_avg_sq f4 [32]
00000000: f3c7 063b 6b35 a737 3775 723b 040e 3b39
00000010: 724f 5d3b b06a aa38 8cfc 763a 12f9 3c3b
00000020: 6cf8 e939 7000 503a 4d4e a93a 82a2 6d3a
00000030: 2cd4 813a c917 8e3a 29b4 013b 1a22 533b
00000040: 70fa d33a eaa6 543a 5862 153b ea34 8a38
00000050: d570 973a 0527 c83b 7315 c737 1ff2 0c3b
00000060: 8d24 fa39 7a36 c33a 56c6 6d3b 1b55 5239
00000070: 6bd2 443b d37e 903b cb1e 013b 5ddd 1a38
0.0020565956 1.9932826e-05 0.0036996135 0.00017838931 0.0033769277 8.126104e-05 0.00094217877 0.002883498
0.00044626312 0.00079346355 0.0012917012 0.0009065048 0.0009905151 0.0010840829 0.0019791222 0.003221637
0.0016172659 0.00081120303 0.0022794213 6.590209e-05 0.0011554012 0.006108167 2.3732637e-05 0.002150662
0.00047710948 0.0014893555 0.0036281548 0.00020058865 0.0030032645 0.00440965 0.0019702192 3.692262e-05

exp_avg f4 [32]
00000000: 3522 5d3a e7ae 1f36 8c83 593b b6fd 1db8
00000010: 7cf9 65ba a75b cb37 26f7 543a 9b0c ab3a
00000020: 78fb d93a c5d9 83ba 46b5 eab7 c93b eeb6
00000030: c0da 1aba f31d 9fba 3d87 1fbb a0ac 45ba
00000040: 9e4e 78bb 5f3f e6b9 f851 93bb 172f 5c39
00000050: 0f20 95b8 fca1 003b b4e2 0239 d6ac ee3a
00000060: 2938 7fbb a97b 48bb a95d aa3a 4830 aeb8
00000070: 0267 85ba 1607 a2b9 56d4 1ebb 868f 09b6
0.0008435578 2.3794653e-06 0.003318998 -3.7668004e-05 -0.0008772833 2.4242165e-05 0.0008123986 0.0013050021
0.001663073 -0.0010059407 -2.7979386e-05 -7.0999126e-06 -0.000590723 -0.0012139663 -0.0024342083 -0.0007540677
-0.0037888656 -0.00043916234 -0.0044958554 0.00020998377 -7.110845e-05 0.00196278 0.0001248222 0.0018209468
-0.0038943386 -0.0030591285 0.0012997884 -8.30596e-05 -0.0010177793 -0.00030904327 -0.0024235449 -2.0498132e-06

exp_avg_sq f4 [32]
00000000: 94e3 a038 7930 8736 2101 e138 47c1 c136
00000010: 3e09 1539 7f97 f534 6885 4b38 436b f538
00000020: 0f91 6038 4cbe f338 5472 d738 9d6b de37
00000030: 23ae 1738 e060 6838 d8b4 2c39 b58e 9238
00000040: 8b56 9239 9568 c539 f152 cc39 0e85 c336
00000050: d908 0338 fc0b 4239 0365 d636 ad5f 9f39
00000060: 01f4 0c39 7c2b 8839 b787 8e38 7f1d c038
00000070: d573 6438 4900 e538 6858 1a3a 71d8 a536
7.671784e-05 4.0289565e-06 0.00010729046 5.7743487e-06 0.0001421319 4.5745034e-07 4.8523216e-05 0.000117024894
5.3540858e-05 0.000116225885 0.00010273294 2.6514574e-05 3.6163383e-05 5.5403332e-05 0.00016470568 6.988404e-05
0.0002791177 0.00037652688 0.00038971708 5.8269425e-06 3.1241074e-05 0.00018505746 6.3894563e-06 0.00030398127
0.00013442339 0.0002597234 6.7963665e-05 9.1607675e-05 5.4467313e-05 0.00010919624 0.00058878073 4.9425803e-06

exp_avg f4 [32, 784]
00000000: 0000 0000 0000 0000 0000 0000 0000 0000
00000010: 0000 0000 0000 0000 0000 0000 0000 0000
00000020: 0000 0000 0000 0000 0000 0000 0000 0000
00000030: 1b92 0c28 386d f42a 9b33 ed2a 5e2d 0a28
00000040: 0000 0000 0000 0000 0000 0000 0000 0000
00000050: 0000 0000 0000 0000 0000 0000 0000 0000
00000060: 0000 0000 0000 0000 0000 0000 0000 0000
00000070: 0000 0000 0000 0000 0000 0000 0000 0000
00000080: 0400 0080 0e05 1496 3544 be9e 9a2b 52a0
00000090: cc45 caa5 0816 262a 9dd7 852a 57e6 62b3
000000a0: d848 0db4 0c06 43b3 dbff 0ab2 9d6a 15b3
000000b0: 3822 fab2 610e 7cb5 328d aab4 4e54 c7af
000000c0: f441 2cb1 aab1 31b2 4b79 48b2 c37a bfb0
000000d0: 0000 0000 0000 0000 0000 0000 0000 0000
000000e0: 0000 0000 0000 0000 f4a8 bf96 d51c af98
000000f0: 51f8 16a1 d557 4332 eeb3 22a7 3c93 e32b
00000100: 0de4 822d 733e 982d d1c3 c339 c378 503a
00000110: ab39 d335 734c ceb2 1b61 43b5 1f31 d6b5
00000120: e387 e6b6 726d 01b8 9402 fd35 2b1a a737
00000130: fc99 9137 beec 21b6 8440 9335 c7a3 3334
00000140: 6587 192f b730 8fa3 0000 0000 0000 0000
00000150: 0000 0000 0000 0000 61e3 5f9a 60e2 1324
00000160: 07c3 76a6 1dd3 bc31 8240 f92b ea92 5031
00000170: 477d 6336 ee23 ee36 ba72 4f39 d50a 983a
00000180: e0e4 163a 9b5d a139 44da 123a ce46 be39
00000190: 1970 a9ba 5dad 3cbb 8f88 e4ba 9520 94ba
000001a0: 69ec adba 2b36 43ba 33b1 afb5 089a 5a36
000001b0: cb7f af35 9c3a 7a35 6e95 029b 0000 0000
000001c0: 0000 0000 4c9b af92 7541 5b2d 69cb 3134
000001d0: 9799 202c 38e6 c1b2 8746 1933 0177 4a35
000001e0: 9aef 3236 342b 0637 d20b 9337 2dce 93b9
000001f0: 7534 09b9 016b 98b9 1c9d 2eba 40bb 64ba
00000200: 4e38 20ba 19e8 fe39 ca9b ddb9 d886 5ebb
00000210: ea80 acbb 762d 19bb 62c4 46ba 5495 03ba
00000220: ad5e a9b8 6cbb a6b6 d0df 86b4 e681 e69b
00000230: 0000 0000 0000 0000 0e0c 7830 aef0 82ae
00000240: 21e9 1cb3 18a9 b233 f9ee 8e38 d4bf 7d39
00000250: 10b4 163a b583 10b7 4085 b5b9 4273 20bb
00000260: 4149 edba e7f2 85b8 304d f83a 1458 a5b9
00000270: 0783 acba c18d bbba f54a 76b9 c997 b4b9
00000280: 6670 90bb 144b a6bb 1275 b1ba c253 a4ba
00000290: ec4a d0b7 d9d9 9ab7 66af 8c31 0be7 8315
000002a0: 0000 0000 4116 921d f944 08b1 bb7f a931
000002b0: e93d 2eb3 79d1 46b3 a03f c136 790a bd37
000002c0: 6d58 1c3a 7d78 cbb8 2588 0aba fb4e 1bbb
000002d0: 0d55 3cb9 cb41 d63a eddd 383a 16f9 32bb
000002e0: a618 49bb 5061 08bb 6191 68ba 975a 51ba
000002f0: 3fd7 adbb d9a2 e4bb 70e2 c4bb e448 36bb
00000300: 122e b2ba b8d5 02ba 6c23 a1b4 69d2 7ab0
00000310: 7d1e 2122 f54d 462d 5fc7 582e 9824 9a33
00000320: 162f f833 1f6e adb3 108a 9436 ca1d 4e38
00000330: ab3f 7239 28e3 8fb9 41e2 5eba 9012 cfba
00000340: 7bb3 6bbb 93eb 3ebb 3dc3 96bb 8ae8 1ebc
00000350: 57b2 4abc 6c9e 44bc aa33 21bc ffb3 f7bb
00000360: 4cc2 24bc eb61 22bc 48b0 f1bb 7822 46bb
00000370: dfb0 b6ba 1878 b1b9 b77a 00b5 a8a0 87b1
00000380: 36c5 c023 acd5 972d 684a 072f 13cb e534
00000390: 2e26 8237 fd3b a738 d027 7238 18b7 dc38
000003a0: 158c 05b9 7c6d 52ba ad52 8fba 7ba6 36bb
000003b0: 264e d9bb cc35 a1bb 06c0 0cbc 47ce 60bc
000003c0: 71c2 25bc cf31 15bc 5249 85bb 4f17 c7bb
000003d0: 840d f8bb 28ed edbb 0e2e bebb 8a31 2fbb
000003e0: 9d10 bbb9 2149 a134 4c74 c3b4 4cef 61b1
000003f0: 51ac 4522 a943 432f b51b 2233 6b09 2435
0.0 0.0 0.0 0.0 0.0 0.0 0.0 0.0
0.0 0.0 0.0 0.0 7.803243e-15 4.3418893e-13 4.2135466e-13 7.670376e-15
0.0 0.0 0.0 0.0 0.0 0.0 0.0 0.0
0.0 0.0 0.0 0.0 0.0 0.0 0.0 0.0
-6e-45 -1.195694e-25 -2.0145242e-20 -1.7802118e-19 -3.508871e-16 1.4751405e-13 2.3775158e-13 -5.282922e-08
-1.3158149e-07 -4.5407475e-08 -8.090832e-09 -3.478873e-08 -2.9119391e-08 -9.389824e-07 -3.17677e-07 -3.625779e-10
-2.5066784e-09 -1.0343152e-08 -1.1669111e-08 -1.393197e-09 0.0 0.0 0.0 0.0
0.0 0.0 -3.0964339e-25 -4.5265553e-24 -5.115062e-19 1.1370465e-08 -2.2579556e-15 1.6170186e-12
1.4880564e-11 1.7308132e-11 0.00037339193 0.0007952565 1.5737509e-06 -2.4016321e-08 -7.278447e-07 -1.5958539e-06
-6.8703534e-06 -3.0857926e-05 1.8850719e-06 1.9920137e-05 1.7357052e-05 -2.4128672e-06 1.097113e-06 1.6730256e-07
1.3963371e-10 -1.5524723e-17 0.0 0.0 0.0 0.0 -4.6298994e-23 3.206729e-17
-8.5612706e-16 5.495521e-09 1.7710419e-12 3.0351495e-09 3.3898557e-06 7.0971355e-06 0.00019783797 0.0011599908
0.0005756151 0.00030778054 0.0005601982 0.00036292378 -0.0012927084 -0.0028789856 -0.0017435717 -0.0011301214
-0.0013269308 -0.00074467313 -1.3090088e-06 3.257419e-06 1.3075709e-06 9.3217545e-07 -1.0801631e-22 0.0
0.0 -1.1082336e-27 1.2463243e-11 1.655841e-07 2.2822627e-12 -2.2572848e-08 3.5687233e-08 7.542404e-07
2.6663533e-06 7.997081e-06 1.752927e-05 -0.00028191638 -0.0001308488 -0.00029071423 -0.00066609844 -0.0008725412
-0.00061119057 0.00048619582 -0.00042268477 -0.0033954885 -0.005264391 -0.0023373044 -0.0007582364 -0.0005019505
-8.076183e-05 -4.9690043e-06 -2.512229e-07 -3.8134253e-22 0.0 0.0 9.0239005e-10 -5.954469e-11
-3.653361e-08 8.319529e-08 6.8156e-05 0.00024199422 0.00057488773 -8.613734e-06 -0.0003462229 -0.0024482762
-0.0018103496 -6.387178e-05 0.0018943902 -0.00031536876 -0.0013161608 -0.0014309214 -0.00023488312 -0.00034445364
-0.00440793 -0.005074868 -0.0013538918 -0.0012537169 -2.483042e-05 -1.8459674e-05 4.0944768e-09 5.3275e-26
0.0 3.866889e-21 -1.9829811e-09 4.9330686e-09 -4.056884e-08 -4.629098e-08 5.759255e-06 2.2535432e-05
0.0005964104 -9.702237e-05 -0.00052845693 -0.00236982 -0.00017960761 0.0016346512 0.00070521125 -0.0027309111
-0.0030684858 -0.0020809956 -0.0008871761 -0.0007986216 -0.0053052003 -0.0069774208 -0.0060084388 -0.0027814442
-0.0013594052 -0.0004990953 -3.001436e-07 -9.124848e-10 2.183571e-18 1.1272307e-11 4.928979e-11 7.17784e-08
1.1556965e-07 -8.075971e-08 4.4268163e-06 4.914197e-05 0.00023102637 -0.0002744433 -0.00085023424 -0.0015798379
-0.0035965133 -0.0029132112 -0.004600911 -0.009698996 -0.012371621 -0.012000661 -0.009838978 -0.007559299
-0.01005609 -0.009911041 -0.0073757507 -0.0030232947 -0.001393821 -0.00033849548 -4.786229e-07 -3.9472816e-09
2.0900204e-17 1.7261602e-11 1.2304613e-10 4.280233e-07 1.5514986e-05 7.974354e-05 5.7734374e-05 0.00010524521
-0.00012736053 -0.00080271787 -0.0010934673 -0.0027870226 -0.0066316305 -0.004919743 -0.008590704 -0.013721055
-0.010117159 -0.009106114 -0.0040675784 -0.0060757766 -0.0075699706 -0.0072609372 -0.00580383 -0.0026732408
-0.00035679797 3.0041795e-07 -3.6406198e-07 -3.2877834e-09 2.6789702e-18 1.7759184e-10 3.7743764e-08 6.1108466e-07

exp_avg_sq f4 [32, 784]
00000000: 0000 0000 0000 0000 0000 0000 0000 0000
00000010: 0000 0000 0000 0000 0000 0000 0000 0000
00000020: 0000 0000 0000 0000 0000 0000 0000 0000
00000030: ab99 ce29 43c4 2c2b adef a821 8b89 d71c
00000040: 0000 0000 0000 0000 0000 0000 0000 0000
00000050: 0000 0000 0000 0000 0000 0000 0000 0000
00000060: 0000 0000 0000 0000 0000 0000 0000 0000
00000070: 0000 0000 0000 0000 0000 0000 0000 0000
00000080: 38fd 091b cc82 081b 0c7d 822a e6fb 462b
00000090: 8788 a530 7749 6c31 164e 9b31 e080 3232
000000a0: 7b9e 9132 c5c1 9d32 6358 3a34 4cf7 6a35
000000b0: a5cb 0c33 45cd f233 61f9 4632 28bb 2132
000000c0: 56fc 6c33 e5fe 1435 483f cd32 80c8 4d2c
000000d0: 0000 0000 0000 0000 0000 0000 0000 0000
000000e0: 0000 0000 0000 0000 c70b bd1d cb73 3d25
000000f0: 6bd0 cf32 cfb0 332c fb82 532f ea05 d231
00000100: a66b 6e33 f9ea 0435 4824 5d36 a489 5337
00000110: 4058 1a36 7a2f 4f36 1287 cf36 9fdd 1537
00000120: 85d6 c436 4ef9 b236 8491 a437 3318 9037
00000130: 1e07 7e37 e705 8e36 fd71 0e35 68df 0435
00000140: 0ecc dd34 837d 1934 0000 0000 0000 0000
00000150: 0000 0000 0000 0000 87dd 2732 6711 4430
00000160: 8ae7 a834 2d47 c434 fcaf c733 82e8 0434
00000170: 8a3d 1936 64ad cd36 3e36 5e37 3ddc 2c38
00000180: ac80 0838 2f68 3e38 c81e aa38 0aa5 fd38
00000190: 87b8 0539 ecd9 ef38 b634 fa38 267c d838
000001a0: e2d3 9e38 7bf9 5438 60d1 b437 25bf 1237
000001b0: e7b5 8236 f0d5 ae34 4b9a da33 0000 0000
000001c0: 0000 0000 0455 2827 6dd0 0134 9b40 2532
000001d0: 67a8 c635 7970 5e36 51f9 3734 58eb e534
000001e0: ca22 b736 3cac ad37 edd6 4238 f9dc e138
000001f0: 9c2e 4539 42f3 8c39 8086 d439 63ce 053a
00000200: 288b 073a 6df6 063a 82b3 da39 9e7c aa39
00000210: f681 7b39 0923 2139 486a e238 63ce 8138
00000220: 435e d337 8f82 0c37 81c0 e535 3c21 fd33
00000230: 0000 0000 0000 0000 9285 f830 1d56 6933
00000240: 91c6 8336 307e 1936 07fd 0036 d849 6f37
00000250: ef09 f437 0b35 5d38 7410 0439 b4a1 8e39
00000260: 1eea f339 3d63 323a d483 6a3a b6e3 983a
00000270: 9876 ab3a fedc a63a 16ad 823a 7322 383a
00000280: 6b50 003a 811d a539 d8aa 5d39 55ae fd38
00000290: 36f7 8e38 fefc ae37 3b90 3936 424d 1e35
000002a0: 0000 0000 3da7 9b2f 2728 8c33 1c1a e534
000002b0: d1b7 b836 cd08 1336 d360 a736 dca4 d937
000002c0: d874 9c38 7f0e 1739 44ed 9b39 c17d 193a
000002d0: 3813 623a 2b7b 9e3a b905 d13a 2537 f33a
000002e0: bafe 013b 8101 063b af6f e13a 4460 a93a
000002f0: 9474 723a 3ac1 163a 7741 bb39 244b 5339
00000300: 98a5 c038 44a9 9937 3344 f935 b661 3c34
00000310: 69dc c025 6e9e cb32 3cc9 4f34 d9ef 6135
00000320: 9b03 1a37 64f7 b136 4254 8437 2ed4 5838
00000330: a5fc 0639 4276 8a39 fba0 033a b27b 5c3a
00000340: 9ed8 a33a e658 d53a b8ea 023b 73a0 0b3b
00000350: 593d 133b aef9 153b 8756 083b b032 db3a
00000360: b9a4 a73a 22d8 533a cbfb 003a 0582 8c39
00000370: b539 fa38 55e8 3f38 4eee 7e36 aa25 c833
00000380: 39a1 7e2f 10ba 9031 33bd 3a33 cfbd 7e35
00000390: ab34 0d37 40d2 eb36 9cc1 9c37 b673 5a38
000003a0: 3ed1 1139 ce67 ac39 54bf 273a f37c 853a
000003b0: 5168 c23a 890c ee3a 2989 033b 68cb 013b
000003c0: 1563 083b 3d17 0b3b ec1b ff3a 0786 d43a
000003d0: 45f2 a93a d86a 603a ed9a 013a 39d6 8c39
000003e0: e97e 0439 b092 3638 646f 3636 1103 8333
000003f0: 5510 692a 4d80 a730 cc92 1435 668f 7235
0.0 0.0 0.0 0.0 0.0 0.0 0.0 0.0
0.0 0.0 0.0 0.0 9.174895e-14 6.1379043e-13 1.1447564e-18 1.4263061e-21
0.0 0.0 0.0 0.0 0.0 0.0 0.0 0.0
0.0 0.0 0.0 0.0 0.0 0.0 0.0 0.0
1.1414194e-22 1.1291919e-22 2.3179408e-13 7.069331e-13 1.2044133e-09 3.438428e-09 4.519971e-09 1.0390266e-08
1.695229e-08 1.8365322e-08 1.7354755e-07 8.753166e-07 3.2781504e-08 1.13063415e-07 1.1581819e-08 9.413988e-09
5.517753e-08 5.5505217e-07 2.3893918e-08 2.9243552e-12 0.0 0.0 0.0 0.0
0.0 0.0 5.004006e-21 1.6432369e-16 2.419275e-08 2.5535578e-12 1.9236872e-10 6.1124767e-09
5.55116e-08 4.951576e-07 3.2952685e-06 1.2608627e-05 2.2999156e-06 3.0873039e-06 6.184805e-06 8.932692e-06
5.8662285e-06 5.3338363e-06 1.9618084e-05 1.7177406e-05 1.5141237e-05 4.232617e-06 5.3064997e-07 4.949893e-07
4.1312927e-07 1.4294896e-07 0.0 0.0 0.0 0.0 9.771049e-09 7.1329115e-10
3.1460905e-07 3.6559632e-07 9.298671e-08 1.2378044e-07 2.2834597e-06 6.1296614e-06 1.324486e-05 4.121311e-05
3.254476e-05 4.539656e-05 8.111965e-05 0.00012094721 0.0001275261 0.00011436999 0.00011930747 0.00010322807
7.573493e-05 5.0777086e-05 2.155517e-05 8.746782e-06 3.895478e-06 3.2565686e-07 1.0179482e-07 0.0
0.0 2.336077e-15 1.2089886e-07 9.618954e-09 1.4801161e-06 3.3146046e-06 1.7133904e-07 4.282581e-07
5.457875e-06 2.070341e-05 4.645337e-05 0.000107699954 0.00018804747 0.00026884122 0.00040536 0.00051043014
0.0005170577 0.00051484146 0.00041713944 0.00032517774 0.0002398564 0.00015367208 0.00010796316 6.189642e-05
2.5197054e-05 8.375048e-06 1.7117856e-06 1.1787276e-07 0.0 0.0 1.8082338e-09 5.432786e-08
3.9272204e-06 2.2872227e-06 1.9220768e-06 1.4262703e-05 2.9091692e-05 5.2739906e-05 0.0001259463 0.0002720483
0.00046523003 0.0006804949 0.00089460355 0.0011664543 0.0013081608 0.0012730656 0.0009969797 0.00070241763
0.0004894796 0.00031493235 0.00021139847 0.00012096452 6.817134e-05 2.0860225e-05 2.7651101e-06 5.897201e-07
0.0 2.8313166e-10 6.526562e-08 4.267357e-07 5.5050264e-06 2.190983e-06 4.9882597e-06 2.5945184e-05
7.4604235e-05 0.00014405882 0.0002974068 0.00058552256 0.00086240796 0.001209115 0.001594714 0.0018555863
0.0019835667 0.0020447674 0.0017199422 0.0012922366 0.0009248939 0.0005750839 0.00035716195 0.0002015052
9.186118e-05 1.8317842e-05 1.8571794e-06 1.7544411e-07 3.3456046e-16 2.3704356e-08 1.9351586e-07 8.4168056e-07
9.179955e-06 5.303811e-06 1.5774862e-05 5.169602e-05 0.00012873353 0.0002640952 0.00050212414 0.0008410766
0.001250047 0.0016277104 0.001997633 0.0021305352 0.0022466986 0.0022884416 0.0020803527 0.001672348
0.001279018 0.00080812175 0.00049203326 0.00026799753 0.00011931678 4.5754325e-05 3.798766e-06 9.320077e-08
2.3158443e-10 4.2121044e-09 4.3478575e-08 9.489858e-07 8.416518e-06 7.028022e-06 1.8686806e-05 5.2083014e-05
0.00013906226 0.00032883737 0.00063990545 0.0010184332 0.0014832114 0.0018161695 0.0020070767 0.0019805077
0.002081101 0.0021223568 0.0019463277 0.001621426 0.0012965879 0.0008560843 0.0004944045 0.0002686249
0.00012635779 4.3528795e-05 2.7184951e-06 6.1007206e-08 2.0700223e-13 1.2187314e-09 5.5347914e-07 9.03607e-07

exp_avg f4 [32]
00000000: 1306 61bc 4d68 5cb6 7721 1cbc 2539 e738
00000010: 704d e5bb e3fb 0dba 2b17 0e3c 6701 163c
00000020: c576 58ba 8cbf 7ebb 4bcd 8e3b 395c 3dbb
00000030: fa8b 583b 3d3b e4bb 1303 6dbc 0c33 913b
00000040: 35b4 69bc 67bf 82bb 1ee0 83bc f569 cf38
00000050: 79da 35bc f1cb 3e3c abd2 d63a f936 4a3c
00000060: 84fb 50bc e6dd 31bc 687b 9d3b 5440 85b9
00000070: 12bd b4bc 6c82 1ebc 20bf 8bbb be4b e8b7
-0.013734358 -3.2843266e-06 -0.009529463 0.00011025582 -0.0069977567 -0.0005416257 0.008672516 0.009155608
-0.0008257444 -0.0038871495 0.004357969 -0.002889408 0.0033042417 -0.0069650696 -0.014466065 0.004431134
-0.014264156 -0.003990102 -0.016098078 9.890265e-05 -0.011099451 0.011645303 0.0016389688 0.012342208
-0.0127552785 -0.010856127 0.004805971 -0.00025415665 -0.022062812 -0.00967465 -0.0042647272 -2.7691825e-05
